…
14, 7], 'HEAD_ACT': ['sigmoid', 'softmax'], 'LOSS_FUNC': ['bce', 'cross_entropy'], 'LOSS_WEIGHTS': [1.0, 0.1], 'PRESENCE_RECOGNITION': False, 'PRESENCE_TASKS': ['instruments'], 'PRESENCE_WEIGHTS': [1], 'EVAL_PRESENCE': False, 'MULTIPLE_CLS': False, 'USE_VIDEO': True}), 'FEATURES': CfgNode({'ENABLE': True, 'DIM_FEATURES': 256, 'MODEL': 'detr', 'TRAIN_FEATURES_PATH': '', 'TEST_FEATURES_PATH': '', 'USE_RPN': False, 'RPN_CFG': CfgNode({}), 'RPN_CFG_PATH': '', 'PRECALCULATE_TEST': True, 'RPN_CHECKPOINT': ''})})
[02/06 14:43:04][INFO] misc.py: 187: Model:
MViT(
  (patch_embed): PatchEmbed(
    (proj): Conv3d(3, 96, kernel_size=(3, 7, 7), stride=(2, 4, 4), padding=(1, 3, 3))
  )
  (blocks): ModuleList(
    (0): MultiScaleBlock(
      (norm1): LayerNorm((96,), eps=1e-06, elementwise_affine=True)
      (attn): MultiScaleAttention(
        (qkv): Linear(in_features=96, out_features=288, bias=True)
        (proj): Linear(in_features=96, out_features=96, bias=True)
        (pool_k): Conv3d(96, 96, kernel_size=(3, 3, 3), stride=(1, 8, 8), padding=(1, 1, 1), groups=96, bias=False)
        (norm_k): LayerNorm((96,), eps=1e-06, elementwise_affine=True)
        (pool_v): Conv3d(96, 96, kernel_size=(3, 3, 3), stride=(1, 8, 8), padding=(1, 1, 1), groups=96, bias=False)
        (norm_v): LayerNorm((96,), eps=1e-06, elementwise_affine=True)
      )
      (drop_path): Identity()
      (norm2): LayerNorm((96,), eps=1e-06, elementwise_affine=True)
      (mlp): Mlp(
        (fc1): Linear(in_features=96, out_features=384, bias=True)
        (act): GELU(approximate='none')
        (fc2): Linear(in_features=384, out_features=192, bias=True)
      )
      (proj): Linear(in_features=96, out_features=192, bias=True)
    )
    (1): MultiScaleBlock(
      (norm1): LayerNorm((192,), eps=1e-06, elementwise_affine=True)
      (attn): MultiScaleAttention(
        (qkv): Linear(in_features=192, out_features=576, bias=True)
        (proj): Linear(in_features=192, out_features=192, bias=True)
        (pool_q): Conv3d(96, 96, kernel_size=(3, 3, 3), stride=(1, 2, 2), padding=(1, 1, 1), groups=96, bias=False)
        (norm_q): LayerNorm((96,), eps=1e-06, elementwise_affine=True)
        (pool_k): Conv3d(96, 96, kernel_size=(3, 3, 3), stride=(1, 4, 4), padding=(1, 1, 1), groups=96, bias=False)
        (norm_k): LayerNorm((96,), eps=1e-06, elementwise_affine=True)
        (pool_v): Conv3d(96, 96, kernel_size=(3, 3, 3), stride=(1, 4, 4), padding=(1, 1, 1), groups=96, bias=False)
        (norm_v): LayerNorm((96,), eps=1e-06, elementwise_affine=True)
      )
      (drop_path): DropPath()
      (norm2): LayerNorm((192,), eps=1e-06, elementwise_affine=True)
      (mlp): Mlp(
        (fc1): Linear(in_features=192, out_features=768, bias=True)
        (act): GELU(approximate='none')
        (fc2): Linear(in_features=768, out_features=192, bias=True)
      )
      (pool_skip): MaxPool3d(kernel_size=[1, 3, 3], stride=[1, 2, 2], padding=[0, 1, 1], dilation=1, ceil_mode=False)
    )
    (2): MultiScaleBlock(
      (norm1): LayerNorm((192,), eps=1e-06, elementwise_affine=True)
      (attn): MultiScaleAttention(
        (qkv): Linear(in_features=192, out_features=576, bias=True)
        (proj): Linear(in_features=192, out_features=192, bias=True)
        (pool_k): Conv3d(96, 96, kernel_size=(3, 3, 3), stride=(1, 4, 4), padding=(1, 1, 1), groups=96, bias=False)
        (norm_k): LayerNorm((96,), eps=1e-06, elementwise_affine=True)
        (pool_v): Conv3d(96, 96, kernel_size=(3, 3, 3), stride=(1, 4, 4), padding=(1, 1, 1), groups=96, bias=False)
        (norm_v): LayerNorm((96,), eps=1e-06, elementwise_affine=True)
      )
      (drop_path): DropPath()
      (norm2): LayerNorm((192,), eps=1e-06, elementwise_affine=True)
      (mlp): Mlp(
        (fc1): Linear(in_features=192, out_features=768, bias=True)
        (act): GELU(approximate='none')
        (fc2): Linear(in_features=768, out_features=384, bias=True)
      )
      (proj): Linear(in_features=192, out_features=384, bias=True)
    )
    (3): MultiScaleBlock(
      (norm1): LayerNorm((384,), eps=1e-06, elementwise_affine=True)
      (attn): MultiScaleAttention(
        (qkv): Linear(in_features=384, out_features=1152, bias=True)
        (proj): Linear(in_features=384, out_features=384, bias=True)
        (pool_q): Conv3d(96, 96, kernel_size=(3, 3, 3), stride=(1, 2, 2), padding=(1, 1, 1), groups=96, bias=False)
        (norm_q): LayerNorm((96,), eps=1e-06, elementwise_affine=True)
        (pool_k): Conv3d(96, 96, kernel_size=(3, 3, 3), stride=(1, 2, 2), padding=(1, 1, 1), groups=96, bias=False)
        (norm_k): LayerNorm((96,), eps=1e-06, elementwise_affine=True)
        (pool_v): Conv3d(96, 96, kernel_size=(3, 3, 3), stride=(1, 2, 2), padding=(1, 1, 1), groups=96, bias=False)
        (norm_v): LayerNorm((96,), eps=1e-06, elementwise_affine=True)
      )
      (drop_path): DropPath()
      (norm2): LayerNorm((384,), eps=1e-06, elementwise_affine=True)
      (mlp): Mlp(
        (fc1): Linear(in_features=384, out_features=1536, bias=True)
        (act): GELU(approximate='none')
        (fc2): Linear(in_features=1536, out_features=384, bias=True)
      )
      (pool_skip): MaxPool3d(kernel_size=[1, 3, 3], stride=[1, 2, 2], padding=[0, 1, 1], dilation=1, ceil_mode=False)
    )
    (4-12): 9 x MultiScaleBlock(
      (norm1): LayerNorm((384,), eps=1e-06, elementwise_affine=True)
      (attn): MultiScaleAttention(
        (qkv): Linear(in_features=384, out_features=1152, bias=True)
        (proj): Linear(in_features=384, out_features=384, bias=True)
        (pool_k): Conv3d(96, 96, kernel_size=(3, 3, 3), stride=(1, 2, 2), padding=(1, 1, 1), groups=96, bias=False)
        (norm_k): LayerNorm((96,), eps=1e-06, elementwise_affine=True)
        (pool_v): Conv3d(96, 96, kernel_size=(3, 3, 3), stride=(1, 2, 2), padding=(1, 1, 1), groups=96, bias=False)
        (norm_v): LayerNorm((96,), eps=1e-06, elementwise_affine=True)
      )
      (drop_path): DropPath()
      (norm2): LayerNorm((384,), eps=1e-06, elementwise_affine=True)
      (mlp): Mlp(
        (fc1): Linear(in_features=384, out_features=1536, bias=True)
        (act): GELU(approximate='none')
        (fc2): Linear(in_features=1536, out_features=384, bias=True)
      )
    )
    (13): MultiScaleBlock(
      (norm1): LayerNorm((384,), eps=1e-06, elementwise_affine=True)
      (attn): MultiScaleAttention(
        (qkv): Linear(in_features=384, out_features=1152, bias=True)
        (proj): Linear(in_features=384, out_features=384, bias=True)
        (pool_k): Conv3d(96, 96, kernel_size=(3, 3, 3), stride=(1, 2, 2), padding=(1, 1, 1), groups=96, bias=False)
        (norm_k): LayerNorm((96,), eps=1e-06, elementwise_affine=True)
        (pool_v): Conv3d(96, 96, kernel_size=(3, 3, 3), stride=(1, 2, 2), padding=(1, 1, 1), groups=96, bias=False)
        (norm_v): LayerNorm((96,), eps=1e-06, elementwise_affine=True)
      )
      (drop_path): DropPath()
      (norm2): LayerNorm((384,), eps=1e-06, elementwise_affine=True)
      (mlp): Mlp(
        (fc1): Linear(in_features=384, out_features=1536, bias=True)
        (act): GELU(approximate='none')
        (fc2): Linear(in_features=1536, out_features=768, bias=True)
      )
      (proj): Linear(in_features=384, out_features=768, bias=True)
    )
    (14): MultiScaleBlock(
      (norm1): LayerNorm((768,), eps=1e-06, elementwise_affine=True)
      (attn): MultiScaleAttention(
        (qkv): Linear(in_features=768, out_features=2304, bias=True)
        (proj): Linear(in_features=768, out_features=768, bias=True)
        (pool_q): Conv3d(96, 96, kernel_size=(3, 3, 3), stride=(1, 2, 2), padding=(1, 1, 1), groups=96, bias=False)
        (norm_q): LayerNorm((96,), eps=1e-06, elementwise_affine=True)
        (pool_k): Conv3d(96, 96, kernel_size=(3, 3, 3), stride=(1, 1, 1), padding=(1, 1, 1), groups=96, bias=False)
        (norm_k): LayerNorm((96,), eps=1e-06, elementwise_affine=True)
        (pool_v): Conv3d(96, 96, kernel_size=(3, 3, 3), stride=(1, 1, 1), padding=(1, 1, 1), groups=96, bias=False)
        (norm_v): LayerNorm((96,), eps=1e-06, elementwise_affine=True)
      )
      (drop_path): DropPath()
      (norm2): LayerNorm((768,), eps=1e-06, elementwise_affine=True)
      (mlp): Mlp(
        (fc1): Linear(in_features=768, out_features=3072, bias=True)
        (act): GELU(approximate='none')
        (fc2): Linear(in_features=3072, out_features=768, bias=True)
      )
      (pool_skip): MaxPool3d(kernel_size=[1, 3, 3], stride=[1, 2, 2], padding=[0, 1, 1], dilation=1, ceil_mode=False)
    )
    (15): MultiScaleBlock(
      (norm1): LayerNorm((768,), eps=1e-06, elementwise_affine=True)
      (attn): MultiScaleAttention(
        (qkv): Linear(in_features=768, out_features=2304, bias=True)
        (proj): Linear(in_features=768, out_features=768, bias=True)
        (pool_k): Conv3d(96, 96, kernel_size=(3, 3, 3), stride=(1, 1, 1), padding=(1, 1, 1), groups=96, bias=False)
        (norm_k): LayerNorm((96,), eps=1e-06, elementwise_affine=True)
        (pool_v): Conv3d(96, 96, kernel_size=(3, 3, 3), stride=(1, 1, 1), padding=(1, 1, 1), groups=96, bias=False)
        (norm_v): LayerNorm((96,), eps=1e-06, elementwise_affine=True)
      )
      (drop_path): DropPath()
      (norm2): LayerNorm((768,), eps=1e-06, elementwise_affine=True)
      (mlp): Mlp(
        (fc1): Linear(in_features=768, out_features=3072, bias=True)
        (act): GELU(approximate='none')
        (fc2): Linear(in_features=3072, out_features=768, bias=True)
      )
    )
  )
  (norm): LayerNorm((768,), eps=1e-06, elementwise_affine=True)
  (extra_heads_actions): TransformerRoIHead(
    (dropout): Dropout(p=0.5, inplace=False)
    (feat_project): Sequential(
      (0): Linear(in_features=256, out_features=768, bias=True)
    )
    (decoder): TransformerDecoder(
      (layers): ModuleList(
        (0): TransformerDecoderLayer(
          (self_attn): MultiheadAttention(
            (out_proj): NonDynamicallyQuantizableLinear(in_features=768, out_features=768, bias=True)
          )
          (multihead_attn): MultiheadAttention(
            (out_proj): NonDynamicallyQuantizableLinear(in_features=768, out_features=768, bias=True)
          )
          (linear1): Linear(in_features=768, out_features=2048, bias=True)
          (dropout): Dropout(p=0.1, inplace=False)
          (linear2): Linear(in_features=2048, out_features=768, bias=True)
          (norm1): LayerNorm((768,), eps=1e-05, elementwise_affine=True)
          (norm2): LayerNorm((768,), eps=1e-05, elementwise_affine=True)
          (norm3): LayerNorm((768,), eps=1e-05, elementwise_affine=True)
          (dropout1): Dropout(p=0.1, inplace=False)
          (dropout2): Dropout(p=0.1, inplace=False)
          (dropout3): Dropout(p=0.1, inplace=False)
        )
      )
    )
    (class_projection): Sequential(
      (0): Linear(in_features=768, out_features=14, bias=True)
    )
    (act): Sigmoid()
  )
  (extra_heads_instruments): TransformerRoIHead(
    (dropout): Dropout(p=0.5, inplace=False)
    (feat_project): Sequential(
      (0): Linear(in_features=256, out_features=768, bias=True)
    )
    (decoder): TransformerDecoder(
      (layers): ModuleList(
        (0): TransformerDecoderLayer(
          (self_attn): MultiheadAttention(
            (out_proj): NonDynamicallyQuantizableLinear(in_features=768, out_features=768, bias=True)
          )
          (multihead_attn): MultiheadAttention(
            (out_proj): NonDynamicallyQuantizableLinear(in_features=768, out_features=768, bias=True)
          )
          (linear1): Linear(in_features=768, out_features=2048, bias=True)
          (dropout): Dropout(p=0.1, inplace=False)
          (linear2): Linear(in_features=2048, out_features=768, bias=True)
          (norm1): LayerNorm((768,), eps=1e-05, elementwise_affine=True)
          (norm2): LayerNorm((768,), eps=1e-05, elementwise_affine=True)
          (norm3): LayerNorm((768,), eps=1e-05, elementwise_affine=True)
          (dropout1): Dropout(p=0.1, inplace=False)
          (dropout2): Dropout(p=0.1, inplace=False)
          (dropout3): Dropout(p=0.1, inplace=False)
        )
      )
    )
    (class_projection): Sequential(
      (0): Linear(in_features=768, out_features=7, bias=True)
    )
    (act): Softmax(dim=1)
  )
)
[02/06 14:43:04][INFO] misc.py: 188: Params: 52,646,965
[02/06 14:43:04][INFO] misc.py: 189: Mem: 0.19827556610107422 MB
[02/06 14:43:04][WARNING] jit_analysis.py: 499: Unsupported operator aten::repeat encountered 1 time(s)
[02/06 14:43:04][WARNING] jit_analysis.py: 499: Unsupported operator aten::repeat_interleave encountered 1 time(s)
…
blocks.1.drop_path, blocks.10.drop_path, blocks.11.drop_path, blocks.12.drop_path, blocks.13.drop_path, blocks.14.drop_path, blocks.15.drop_path, blocks.2.drop_path, blocks.3.drop_path, blocks.4.drop_path, blocks.5.drop_path, blocks.6.drop_path, blocks.7.drop_path, blocks.8.drop_path, blocks.9.drop_path, extra_heads_actions.decoder.layers.0.multihead_attn.out_proj, extra_heads_actions.decoder.layers.0.self_attn.out_proj, extra_heads_actions.dropout, extra_heads_instruments.decoder.layers.0.multihead_attn.out_proj, extra_heads_instruments.decoder.layers.0.self_attn.out_proj, extra_heads_instruments.dropout
[02/06 14:43:05][INFO] misc.py: 195: Activations: 475.005033 M
[02/06 14:43:05][INFO] misc.py: 200: nvidia-smi
[02/06 14:43:05][INFO] misc.py: 187: Model:
TransformerRoIHead(
  (dropout): Dropout(p=0.5, inplace=False)
  (feat_project): Sequential(
    (0): Linear(in_features=256, out_features=768, bias=True)
  )
  (decoder): TransformerDecoder(
    (layers): ModuleList(
      (0): TransformerDecoderLayer(
        (self_attn): MultiheadAttention(
          (out_proj): NonDynamicallyQuantizableLinear(in_features=768, out_features=768, bias=True)
        )
        (multihead_attn): MultiheadAttention(
          (out_proj): NonDynamicallyQuantizableLinear(in_features=768, out_features=768, bias=True)
        )
        (linear1): Linear(in_features=768, out_features=2048, bias=True)
        (dropout): Dropout(p=0.1, inplace=False)
        (linear2): Linear(in_features=2048, out_features=768, bias=True)
        (norm1): LayerNorm((768,), eps=1e-05, elementwise_affine=True)
        (norm2): LayerNorm((768,), eps=1e-05, elementwise_affine=True)
        (norm3): LayerNorm((768,), eps=1e-05, elementwise_affine=True)
        (dropout1): Dropout(p=0.1, inplace=False)
        (dropout2): Dropout(p=0.1, inplace=False)
        (dropout3): Dropout(p=0.1, inplace=False)
      )
    )
  )
  (class_projection): Sequential(
    (0): Linear(in_features=768, out_features=14, bias=True)
  )
  (act): Sigmoid()
)
[02/06 14:43:05][INFO] misc.py: 188: Params: 8,086,030
[02/06 14:43:05][INFO] misc.py: 189: Mem: 2.598884105682373 MB
[02/06 14:43:05][WARNING] jit_analysis.py: 499: Unsupported operator aten::masked_fill_ encountered 1 time(s)
[02/06 14:43:05][WARNING] jit_analysis.py: 499: Unsupported operator aten::div encountered 2 time(s)
[02/06 14:43:05][WARNING] jit_analysis.py: 499: Unsupported operator aten::unflatten encountered 2 time(s)
…
[02/06 14:43:05][WARNING] jit_analysis.py: 511: The following submodules of the model were never called during the trace of the graph. They may be unused, or they were accessed by direct calls to .forward() or via other python methods. In the latter case they will have zeros for statistics, though their statistics will still contribute to their parent calling module.
decoder.layers.0.multihead_attn.out_proj, decoder.layers.0.self_attn.out_proj, dropout
[02/06 14:43:05][INFO] misc.py: 195: Activations: 0.987206 M
[02/06 14:43:05][INFO] misc.py: 200: nvidia-smi
[02/06 14:43:05][INFO] misc.py: 187: Model:
TransformerRoIHead(
  (dropout): Dropout(p=0.5, inplace=False)
  (feat_project): Sequential(
    (0): Linear(in_features=256, out_features=768, bias=True)
  )
  (decoder): TransformerDecoder(
    (layers): ModuleList(
      (0): TransformerDecoderLayer(
        (self_attn): MultiheadAttention(
          (out_proj): NonDynamicallyQuantizableLinear(in_features=768, out_features=768, bias=True)
        )
        (multihead_attn): MultiheadAttention(
          (out_proj): NonDynamicallyQuantizableLinear(in_features=768, out_features=768, bias=True)
        )
        (linear1): Linear(in_features=768, out_features=2048, bias=True)
        (dropout): Dropout(p=0.1, inplace=False)
        (linear2): Linear(in_features=2048, out_features=768, bias=True)
        (norm1): LayerNorm((768,), eps=1e-05, elementwise_affine=True)
        (norm2): LayerNorm((768,), eps=1e-05, elementwise_affine=True)
        (norm3): LayerNorm((768,), eps=1e-05, elementwise_affine=True)
        (dropout1): Dropout(p=0.1, inplace=False)
        (dropout2): Dropout(p=0.1, inplace=False)
        (dropout3): Dropout(p=0.1, inplace=False)
      )
    )
  )
  (class_projection): Sequential(
    (0): Linear(in_features=768, out_features=7, bias=True)
  )
  (act): Softmax(dim=1)
)
[02/06 14:43:05][INFO] misc.py: 188: Params: 8,080,647
[02/06 14:43:05][INFO] misc.py: 189: Mem: 2.598884105682373 MB
[02/06 14:43:05][WARNING] jit_analysis.py: 499: Unsupported operator aten::masked_fill_ encountered 1 time(s)
[02/06 14:43:05][WARNING] jit_analysis.py: 499: Unsupported operator aten::div encountered 2 time(s)
…
